…
        "colab_type": "code",
        "outputId": "07b52961-e19e-4d3c-8c99-efc5a4ba25a0",
        "colab": {
          "base_uri": "https://localhost:8080/",
          "height": 451
        }
      },
      "source": [
        "#Define the model\n",
        "batch_size = 128\n",
        "#Batch size, inputs and outputs\n",
        "model = CnnRegressor(batch_size, X.shape[1], 1)\n",
        "model.cuda()"
      ],
      "execution_count": 10,
      "outputs": [
        {
          "output_type": "execute_result",
          "data": {
            "text/plain": [
              "CnnRegressor(\n",
              "  (input_layer): Conv1d(8, 128, kernel_size=(1,), stride=(1,))\n",
              "  (batchNorm): BatchNorm1d(128, eps=1e-05, momentum=0.1, affine=True, track_running_stats=True)\n",
              "  (max_pooling_layer): MaxPool1d(kernel_size=1, stride=1, padding=0, dilation=1, ceil_mode=False)\n",
              "  (conv_layer): Conv1d(128, 128, kernel_size=(1,), stride=(1,))\n",
              "  (batchNorm1): BatchNorm1d(128, eps=1e-05, momentum=0.1, affine=True, track_running_stats=True)\n",
              "  (max_pooling_layer1): MaxPool1d(kernel_size=1, stride=1, padding=0, dilation=1, ceil_mode=False)\n",
              "  (conv_layer1): Conv1d(128, 128, kernel_size=(1,), stride=(1,))\n",
              "  (batchNorm2): BatchNorm1d(128, eps=1e-05, momentum=0.1, affine=True, track_running_stats=True)\n",
              "  (max_pooling_layer2): MaxPool1d(kernel_size=1, stride=1, padding=0, dilation=1, ceil_mode=False)\n",
              "  (conv_layer2): Conv1d(128, 128, kernel_size=(1,), stride=(1,))\n",
              "  (batchNorm3): BatchNorm1d(128, eps=1e-05, momentum=0.1, affine=True, track_running_stats=True)\n",
              "  (max_pooling_layer3): MaxPool1d(kernel_size=1, stride=1, padding=0, dilation=1, ceil_mode=False)\n",
              "  (conv_layer3): Conv1d(128, 128, kernel_size=(1,), stride=(1,))\n",
              "  (batchNorm4): BatchNorm1d(128, eps=1e-05, momentum=0.1, affine=True, track_running_stats=True)\n",
              "  (max_pooling_layer4): MaxPool1d(kernel_size=1, stride=1, padding=0, dilation=1, ceil_mode=False)\n",
              "  (conv_layer4): Conv1d(128, 128, kernel_size=(1,), stride=(1,))\n",
              "  (batchNorm5): BatchNorm1d(128, eps=1e-05, momentum=0.1, affine=True, track_running_stats=True)\n",
              "  (max_pooling_layer5): MaxPool1d(kernel_size=1, stride=1, padding=0, dilation=1, ceil_mode=False)\n",
              "  (flatten_layer): Flatten()\n",
              "  (linear_layer1): Linear(in_features=128, out_features=64, bias=True)\n",
              "  (linear_layer2): Linear(in_features=64, out_features=32, bias=True)\n",
              "  (linear_layer3): Linear(in_features=32, out_features=32, bias=True)\n",
              "  (output_layer): Linear(in_features=32, out_features=1, bias=True)\n",
              ")"
            ]
          },
          "metadata": {
            "tags": []
          },
          "execution_count": 10
        }
      ]
    },
    {
      "cell_type": "code",
      "metadata": {
        "id": "JEdd7Cy8GbEA",
        "colab_type": "code",
        "colab": {}
      },
      "source": [
        "# This method will return the average L1 loss and R2 score\n",
…
